EasyMove-main/EasyMove-main/hand-gesture-recognition-mediapipe/model/keypoint_classifier/keypoint_classifier.tflite (tflite, 6912 bytes, 6 tensors)

sequential_7/dense_23/BiasAdd/ReadVariableOp f4 [11]
-0.8516511 -0.2506746 0.7399126 0.292809 0.5365651 0.23221625 0.2856461 0.650472
0.3187545 -1.3332535 -0.108622886
00000000: ce05 5abf 6c58 80be ea6a 3d3f 10eb 953e
00000010: 555c 093f 19ca 6d3e 3540 923e 5585 263f
00000020: ca33 a33e 0da8 aabf ad75 debd

sequential_7/dense_22/BiasAdd/ReadVariableOp f4 [10]
0.7767052 0.045210466 0.9466518 0.23060355 0.18632002 -1.1224782 0.66206497 0.5271042
0.076926276 0.11589889
00000000: 27d6 463f 9c2e 393d c657 723f 5623 6c3e
00000010: adca 3e3e 5ead 8fbf 177d 293f 4df0 063f
00000020: 868b 9d3d 665c ed3d

sequential_7/dense_21/BiasAdd/ReadVariableOp f4 [20]
-0.65368015 0.051758703 -0.7697168 -0.98088104 -0.65502405 -0.13223486 0.6730469 -0.6114561
-0.7341148 -0.43448338 -0.3157102 -0.7314123 -0.386286 -0.952821 -0.45254877 -0.7334763
-0.7398802 -0.93831146 -1.0118713 -0.5086595
00000000: 9557 27bf ef00 543d 290c 45bf 051b 7bbf
00000010: a8af 27bf 9368 07be cd4c 2c3f 6388 1cbf
00000020: f3ee 3bbf 9b74 debe c4a4 a1be d63d 3bbf
00000030: 47c7 c5be 14ec 73bf 79b4 e7be 1ac5 3bbf
00000040: ca68 3dbf 2e35 70bf 0085 81bf 8237 02bf

sequential_7/dense_21/MatMul f4 [20, 42]
-0.12506542 0.23676997 -0.008021346 -0.39093873 0.066351704 -0.09907089 0.07213154 0.036477484
0.15463737 0.10283652 0.0345539 -0.03562849 0.011880458 0.017440552 -0.08174167 0.031759273
-0.060435914 0.015666207 0.15830985 0.05780014 0.0031118635 0.07215764 -0.105825104 0.042357467
-0.22978686 0.078927994 0.17778999 0.11143124 0.011711943 0.12148 -0.17576405 0.05982761
-0.35105315 0.070835575 0.108122885 0.19739276 0.041938417 0.13510418 0.022585548 -0.12270655
0.02980791 -1.9483421 -0.065524146 -0.14298372 -0.05172764 0.86627424 -0.117294796 0.49510753
0.039091494 0.4353909 0.12325067 0.3588809 -0.6428853 -0.021272853 -0.36042604 0.019100728
-0.5358014 -0.03021137 -1.0316421 0.011185942 -0.31146815 -0.1120747 -0.020814307 0.044552226
0.1865153 0.18353562 0.13621786 0.1721023 -0.07119531 -0.18967041 0.25984272 0.13664451
0.30721572 0.20609917 0.34675062 0.10140004 0.27818725 -0.021294005 0.4229311 0.21376376
0.5318889 0.30977806 0.3750979 0.19096279 0.27535295 -0.20410588 -0.07314045 0.1180875
-0.057131894 0.013232806 -0.1059511 -0.003466643 0.10030897 -0.05132444 0.0150353145 0.0178231
-0.010195355 0.100326195 -0.055330306 0.2751015 -0.050632805 0.27559882 0.02117974 -0.033677824
0.06865895 0.0313074 -0.16833012 -0.1607892 -0.30937278 -0.58415085 0.10456851 -0.071365684
0.08974572 -0.00041271822 0.017496685 -0.54354733 -0.24066786 -1.1564702 0.08808272 -0.05976265
0.02751793 -0.05757741 -0.02673503 -0.56004757 -0.23041922 -0.6029871 0.18410233 -0.2394754
0.3238853 0.23176235 0.2009846 -0.025123637 0.104936674 -0.04874568 0.091931194 0.047932602
-0.43553582 0.04975844 -0.07993605 -0.07717443 0.16111617 -0.1932455 0.24931262 -0.25769523
-0.12293612 0.12156689 -0.15507858 -0.17877732 0.4093439 -0.48344272 0.8472023 -0.714366
-0.081049696 0.11481402 -0.26979128 -0.10961262 0.32036316 -0.46253395 1.0264102 -0.68780756
0.07409905 0.21769868 -0.29614937 0.1823808 -0.16953269 0.16683738 -0.012920576 0.14078057
0.15950796 0.12533012 -0.50864714 -0.18525352 -0.3293619 -0.19367747 -0.08690291 -0.5561272
0.0023176095 -0.80309415 -0.746523 0.09204922 -0.33240908 -0.0116872275 -0.057877373 -0.0067985347
0.14669707 -0.06332043 -0.7067149 0.044469327 -0.36373386 -0.066672675 -0.1445171 0.089413755
-0.16981931 0.14159063 -0.2676459 0.12505715 -0.16130291 0.009254619 -0.019883892 0.105839945
-0.24308294 0.071956 0.17406324 0.23621373 0.20063446 0.2485911 0.22951685 0.30659583
0.14687929 0.16733842 0.29285532 0.24771196 0.73780125 1.3509996 0.3620427 0.5450831
0.07677239 0.4028433 -0.15315036 0.42518643 0.028473664 0.4789238 0.21937388 0.14636609
0.09593606 -0.04058532 0.0037933863 -0.31309217 0.15436211 0.40533468 0.10882976 -0.008123963
-0.36241686 -0.027889492 -0.7063656 0.1998594 0.19813122 0.22975361 0.15354468 -0.124391966
-0.34950477 -0.014318174 -1.2140445 0.29848096 0.3978106 -0.1431265 0.10449286 -0.1900493
-0.12849008 0.0698186 -0.45039493 0.16265126 -0.17457204 -0.2192756 -0.402682 0.70660245
00000000: 2611 00be d473 723e f76b 03bc 1f29 c8be
00000010: 67e3 873d aee5 cabd b3b9 933d 6a69 153d
00000020: 4259 1e3e f49b d23d 6488 0d3d 2eef 11bd
00000030: 41a6 423c 7ddf 8e3c 2d68 a7bd 0316 023d
00000040: a68b 77bd 6b56 803c fa1b 223e d7bf 6c3d
00000050: 68f0 4b3b 62c7 933d d5ba d8bd 067f 2d3d
00000060: 3f4d 6bbe 00a5 a13d 940e 363e 1036 e43d
00000070: 73e3 3f3c 82ca f83d 7efb 33be cc0d 753d
00000080: 3dbd b3be 3e12 913d 886f dd3d 5421 4a3e
00000090: 9ec7 2b3d c058 0a3e 5405 b93c 924d fbbd
000000a0: b82f f43c 4663 f9bf 8631 86bd 536a 12be
000000b0: 5de0 53bd 26c4 5d3f 4138 f0bd bc7e fd3e
000000c0: 671e 203d 8eeb de3e d96a fc3d 3dbf b73e
000000d0: 2294 24bf 6844 aebc c389 b8be 2179 9c3c
000000e0: 482a 09bf d67d f7bc d90c 84bf 3e45 373c
000000f0: c178 9fbe 6c87 e5bd c482 aabc 657c 363d
00000100: defd 3e3e c3f0 3b3e b27c 0b3e 963b 303e
00000110: d9ce 91bd f638 42be 1b0a 853e 8aec 0b3e
00000120: 614b 9d3e a90b 533e 4c89 b13e d3aa cf3d
00000130: 8f6e 8e3e c470 aebc 6d8a d83e e3e4 5a3e
00000140: df29 083f 3b9b 9e3e d50c c03e c08b 433e
00000150: 10fb 8c3e 2201 51be a9ca 95bd dcd7 f13d
00000160: 2203 6abd 69ce 583c e4fc d8bd 9e30 63bb
00000170: ca6e cd3d 9339 52bd ae56 763c c001 923c
00000180: 6b0a 27bc d277 cd3d 08a2 62bd 1bda 8c3e
00000190: 5864 4fbd 4a1b 8d3e 2281 ad3c c2f1 09bd
000001a0: 109d 8c3d 303c 003d bb5e 2cbe eda5 24be
000001b0: 1c66 9ebe e98a 15bf 0428 d63d 2c28 92bd
000001c0: 9bcc b73d 1a62 d8b9 3555 8f3c eb25 0bbf
000001d0: a371 76be 3707 94bf b764 b43d aec9 74bd
000001e0: 486d e13c 4ad6 6bbd 6c03 dbbc 475f 0fbf
000001f0: 04f3 6bbe 5d5d 1abf 5285 3c3e 0a39 75be
00000200: 4bd4 a53e 1c53 6d3e e8ce 4d3e 16d0 cdbc
00000210: 0ae9 d63d 8da9 47bd 6c46 bc3d fa54 443d
00000220: 8dfe debe 82cf 4b3d 83b5 a3bd a10d 9ebd
00000230: a3fb 243e 26e2 45be cf4b 7f3e a1f0 83be
00000240: efc5 fbbd 10f8 f83d ebcc 1ebe 6711 37be
00000250: 8695 d13e ce85 f7be 40e2 583f b1e0 36bf
00000260: 62fd a5bd 9d23 eb3d 1522 8abe 957c e0bd
00000270: a406 a43e 40d1 ecbe 6961 833f 2814 30bf
00000280: 3ec1 973d 67ec 5e3e e4a0 97be 08c2 3a3e
00000290: fa99 2dbe 6bd7 2a3e d3b0 53bc c828 103e
000002a0: 0e56 233e 8a56 003e b336 02bf 19b3 3dbe
000002b0: 1fa2 a8be 6353 46be 27fa b1bd 5a5e 0ebf
000002c0: 09e3 173b 9497 4dbf 221c 3fbf 4d84 bc3d
000002d0: 8631 aabe c97b 3fbc d310 6dbd 3ec6 debb
000002e0: c237 163e 24ae 81bd 45eb 34bf 7825 363d
000002f0: 533b babe af8b 88bd 4afc 13be 8f1e b73d
00000300: 1de5 2dbe 22fd 103e e208 89be fb0e 003e
00000310: 972c 25be afa0 173c 8be3 a2bc 9dc2 d83d
00000320: bcea 78be ab5d 933d a23d 323e 03e2 713e
00000330: 1f73 4d3e aa8e 7e3e 7706 6b3e 21fa 9c3e
00000340: 8667 163e c35a 2b3e 22f1 953e 34a8 7d3e
00000350: 8be0 3c3f 8eed ac3f a95d b93e 918a 0b3f
00000360: d83a 9d3d 7a41 ce3e 73d3 1cbe 09b2 d93e
00000370: 9a41 e93c 8035 f53e 8ca3 603e fee0 153e
00000380: 207a c43d cb3c 26bd 769a 783b 9e4d a0be
00000390: 1a11 1e3e 0788 cf3e 23e2 de3d 5f1a 05bc
000003a0: b48e b9be 8178 e4bc 60d4 34bf f1a7 4c3e
000003b0: e9e2 4a3e 8844 6b3e d13a 1d3e 37c1 febd
000003c0: 4af2 b2be c696 6abc cf65 9bbf 7fd2 983e
000003d0: d5ad cb3e c18f 12be 5a00 d63d 499c 42be
000003e0: e792 03be 0efd 8e3d 2a9a e6be 0d8e 263e
000003f0: 03c3 32be c889 60be 562c cebe e6e3 343f

sequential_7/dense_22/MatMul f4 [10, 20]
-0.6580011 -0.18990527 0.16039558 0.27174032 0.5111979 -1.0144894 -0.26623607 -0.6627595
0.13016827 -0.55237216 0.39817104 -0.029281408 0.5653957 0.6287635 0.006066776 0.6447469
0.31854427 0.641155 0.9967668 -1.1252824 0.68106186 -0.05890856 0.21855362 0.15117636
0.6160399 0.35695195 -0.029204411 -0.08217871 0.6047728 -0.21823256 0.27120474 -0.2896599
-1.1648253 0.6700808 0.8806206 0.31110626 1.3454081 -0.5270139 0.13362822 0.28678736
0.044999182 0.3399193 0.06794223 0.38462722 0.010736823 -0.19064921 0.44263262 -0.62892896
0.5320688 -0.21717222 0.6485879 -0.10029093 0.43170053 -0.15673527 0.446787 0.10790402
-0.32570273 -0.12798391 -0.055353016 1.9935799 0.12339828 0.09670053 0.18807913 0.68061066
0.03974152 -0.011518991 0.14812317 0.22460514 0.7801586 0.14209923 0.36886728 0.35870606
0.008434504 0.15085599 0.9317945 -0.5877045 0.15412125 0.27548802 0.54919326 -0.010950128
1.4698915 -0.15213354 0.21213353 0.2422665 -0.43371186 0.07424188 -0.9298201 0.64437836
0.24832931 0.114546865 -0.0827859 0.12133528 0.57711697 -0.785188 -0.26036578 0.31025118
0.40804464 -0.0823203 0.13862035 0.011182643 0.20430553 0.07187225 0.09130576 -0.027565755
0.23282632 0.22530708 0.4636973 0.017984571 0.3582279 0.19149448 0.058524698 -0.21702443
0.7366355 0.95523816 -0.11850715 -0.05252118 -0.25395286 0.7796143 -0.459333 0.075547464
-0.1335809 0.120096676 0.61133724 0.8339724 -0.6231377 -0.78633934 0.21505469 0.2869352
-0.12764685 -0.074434154 -0.92195463 0.41310415 0.25731546 -0.39564815 -0.3902943 -0.26585725
-0.32528892 0.18745819 -0.9015925 0.041443277 0.17431521 1.1547139 0.043818597 -0.85152507
0.06563228 1.0406306 0.7654488 1.045237 -0.017115632 0.94734174 -0.2163661 -0.075602986
0.06592951 0.12542847 -0.036057256 -0.23923284 0.28830966 0.21502854 -0.5061081 0.13047956
-0.17826444 1.1928507 -0.067085505 0.3355606 1.0414904 1.0749305 1.0120826 0.24264282
0.30416688 1.9338402 0.0110072205 1.250728 -0.08618922 0.21747085 0.29161328 0.6170824
0.28293657 1.2317228 -0.4001689 0.021258041 1.3862404 0.20908952 0.9894327 0.60629463
0.09637141 0.1269883 -0.549455 0.31227294 0.6504892 0.09440465 0.6611342 -0.42412892
0.5976782 0.021311449 0.41502193 0.8060314 -0.12482027 -0.2606567 0.3952566 -0.62887645
00000000: c372 28bf 8776 42be bd3e 243e 8c21 8b3e
00000010: dedd 023f cada 81bf 1850 88be 9baa 29bf
00000020: d54a 053e 4368 0dbf 13dd cb3e 90df efbc
00000030: c6bd 103f a5f6 203f cecb c63b 220e 253f
00000040: 3c18 a33e bc22 243f 1c2c 7f3f 4109 90bf
00000050: 125a 2e3f 1a4a 71bd 85cc 5f3e facd 1a3e
00000060: cab4 1d3f 68c2 b63e 173e efbc 504d a8bd
00000070: 64d2 1a3f 5b78 5fbe 59db 8a3e 4d4e 94be
00000080: ff18 95bf 6a8a 2b3f 5a70 613f 5249 9f3e
00000090: 5536 ac3f 62ea 06bf d6d5 083e cbd5 923e
000000a0: 1051 383d e709 ae3e 4c25 8b3d dced c43e
000000b0: 80e9 2f3c 8c39 43be bea0 e23e 7d01 21bf
000000c0: a935 083f 6562 5ebe db09 263f 5565 cdbd
000000d0: da07 dd3e 367f 20be 44c1 e43e c8fc dc3d
000000e0: 82c2 a6be 370e 03be d8b9 62bd a02d ff3f
000000f0: 3db8 fc3d ed0a c63d d197 403e 803c 2e3f
00000100: 01c8 223d 26ba 3cbc 9aad 173e e4fe 653e
00000110: 79b8 473f 7682 113e 2cdc bc3e 52a8 b73e
00000120: e030 0a3c fe79 1a3e 168a 6e3f cd73 16bf
00000130: f6d1 1d3e c40c 8d3e ee97 0c3f 2a68 33bc
00000140: 6825 bc3f e5c8 1bbe 8839 593e b614 783e
00000150: 7b0f debe 200c 983d b108 6ebf fbf5 243f
00000160: 0a4a 7e3e 8c97 ea3d a78b a9bd a27e f83d
00000170: f0bd 133f 1502 49bf aa4e 85be 3ed9 9e3e
00000180: 3aeb d03e 8c97 a8bd 7ef2 0d3e 6737 373c
00000190: 7835 513e c231 933d 84fe ba3d 94d1 e1bc
000001a0: 066a 6e3e e6b6 663e bc69 ed3e 6154 933c
000001b0: a669 b73e 2117 443e 98b7 6f3d a73b 5ebe
000001c0: 2594 3c3f 7d8a 743f e0b3 f2bd 7320 57bd
000001d0: 1c06 82be ce94 473f b22d ebbe a1b8 9a3d
000001e0: 6ec9 08be 3ff5 f53d 9980 1c3f 377f 553f
000001f0: f485 1fbf 894d 49bf 4c37 5c3e 2ce9 923e
00000200: dbb5 02be ef70 98bd 3805 6cbf 6382 d33e
00000210: dabe 833e 6592 cabe a8d4 c7be 711e 88be
00000220: 458c a6be 0af5 3f3e c4ce 66bf 6dc0 293d
00000230: b07f 323e aacd 933f 217b 333d 8cfd 59bf
00000240: 386a 863d 6233 853f 74f4 433f 53ca 853f
00000250: 1536 8cbc fd84 723f 138f 5dbe bdd5 9abd
00000260: 0d06 873d 5270 003e c6b0 13bd 74f9 74be
00000270: 539d 933e 7130 5c3e 4d90 01bf 6f9c 053e
00000280: f48a 36be 55af 983f 2064 89bd 99ce ab3e
00000290: 8f4f 853f 5397 893f ec8b 813f 5c77 783e
000002a0: c3bb 9b3e 1388 f73f a157 343c db17 a03f
000002b0: f983 b0bd aeb0 5e3e 564e 953e 1df9 1d3f
000002c0: 10dd 903e 18a9 9d3f f0e2 ccbe 5825 ae3c
000002d0: 5370 b13f 901b 563e 764b 7d3f 2036 1b3f
000002e0: 605e c53d 3909 023e 15a9 0cbf 3de2 9f3e
000002f0: 7686 263f 3a57 c13d 1740 293f 6d27 d9be
00000300: 7001 193f 5995 ae3c c17d d43e 1358 4e3f
00000310: c5a1 ffbd cc74 85be 135f ca3e 0cfe 20bf

sequential_7/dense_23/MatMul f4 [11, 10]
-0.4197718 0.8562916 0.2001865 -0.20527916 0.2201847 0.3358546 0.32003716 0.25843105
0.5462071 -0.009755973 0.59036213 -0.29596457 -0.4368988 0.7966748 -0.59247494 0.33359838
-0.7505759 0.22413552 0.58857006 0.30204472 0.5341904 -1.0360188 1.0071963 -0.10209771
-1.3041508 -1.1778997 -0.79933906 0.17011775 0.5407859 -0.28306904 -0.22132024 -0.39969343
-1.0931797 -0.82693714 0.4758909 -0.65389436 -0.14893301 -0.07101466 -0.27578494 0.7727051
-0.12816325 -0.6706975 0.7187105 -0.4693819 -0.52086025 -2.7278771 0.8718173 -0.8033879
-1.2363908 -0.4664992 -0.5083119 -1.0340756 0.09982918 -0.025818927 0.019129863 -0.79576606
0.9117428 -0.015403404 -0.2188921 -0.24380021 1.1164241 0.42792752 -0.9329185 -0.7120686
0.3285111 0.6550734 -0.37462428 -0.78391886 0.5117173 -1.334897 -0.9477829 -0.8357769
0.36028045 0.530585 0.41603974 -1.98535 0.12589902 -0.2603133 -1.4570653 0.29710218
-0.71295744 0.17610316 -0.94166195 -0.26795235 -0.52859795 -0.483598 -0.09037893 0.80470055
0.52441794 -1.2714031 0.080525704 0.9229716 -0.5901865 0.40092963 0.23673858 1.225872
-1.2870984 -0.89304817 -0.68113524 0.5205048 -0.52475303 0.39354023 0.8518637 -0.07431095
0.15454677 0.1886371 -1.2941098 -0.4712832 -0.46054888 0.3752295
00000000: 54ec d6be ed35 5b3f b1fd 4c3e b334 52be
00000010: 1978 613e 22f5 ab3e e9db a33e 1351 843e
00000020: 3ad4 0b3f 84d7 1fbc f921 173f ab88 97be
00000030: 33b1 dfbe e1f2 4b3f 70ac 17bf 68cd aa3e
00000040: be25 40bf c883 653e 87ac 163f 9ba5 9a3e
00000050: b4c0 083f 449c 84bf cfeb 803f 9b18 d1bd
00000060: 6aee a6bf 6bc5 96bf 7ca1 4cbf 5933 2e3e
00000070: f270 0a3f 6dee 90be c6a1 62be 9ea4 ccbe
00000080: 50ed 8bbf 27b2 53bf f9a7 f33e 9f65 27bf
00000090: e581 18be 2270 91bd af33 8dbe 00d0 453f
000000a0: 3a3d 03be d5b2 2bbf 69fd 373f d352 f0be
000000b0: 1957 05bf 8a95 2ec0 6b2f 5f3f d4aa 4dbf
000000c0: 0e42 9ebf fcd8 eebe bb20 02bf 975c 84bf
000000d0: 3e73 cc3d 3782 d3bc 3bb6 9c3c 53b7 4bbf
000000e0: fa67 693f 8f5e 7cbc 4025 60be c3a6 79be
000000f0: fce6 8e3f 5119 db3e bfd3 6ebf 214a 36bf
00000100: 9b32 a83e e4b2 273f c1ce bfbe e8ae 48bf
00000110: e8ff 023f e8dd aabf e6a1 72bf 7af5 55bf
00000120: ae76 b83e 6bd4 073f 2903 d53e f31f febf
00000130: aceb 003e c947 85be 1e81 babf c71d 983e
00000140: 6184 36bf 6354 343e c210 71bf 0d31 89be
00000150: 3252 07bf 289a f7be 9718 b9bd db00 4e3f
00000160: 4140 063f 56bd a2bf a9ea a43d de47 6c3f
00000170: 7616 17bf a646 cd3e 996b 723e 60e9 9c3f
00000180: a4bf a4bf ce9e 64bf e15e 2ebf cd3f 053f
00000190: 3756 06bf 1b7e c93e bd13 5a3f 5730 98bd
000001a0: 8241 1e3e 152a 413e 64a5 a5bf 084c f1be
000001b0: 10cd ebbe 151e c03e
